tests/resources/models/loan_model_alpha.onnx (onnx, 42153 bytes, 9 tensors)

StatefulPartitionedCall/sequential_8/dense_35/MatMul/ReadVariableOp:0 f4 [64, 1]
-0.19837706 0.16396596 -0.006053005 -0.054632016 0.17851031 -0.37316006 0.25195217 -0.19811778
0.54672426 -0.20874907 -0.219316 0.0442578 -0.22599503 -0.18141887 0.3186619 0.22474879
-0.29267564 -0.10443052 -0.31249487 -0.16699135 -0.39025986 0.14638026 0.35541254 0.10525545
-0.3442287 0.21913652 -0.38566783 0.0151306065 0.108681396 0.62686855 0.07179193 -0.28700423
-0.25117344 -0.21787645 -0.3303884 0.13266945 -0.3402147 0.22494556 -0.3778879 0.30624047
-0.19371057 -0.26208785 0.40957078 0.38895154 0.10475502 -0.2509901 0.18506648 -0.20100623
-0.08984609 0.0016535611 -0.3441567 -0.44846827 -0.1953383 0.24736832 -0.1931199 0.5094027
0.27383253 0.05852574 0.27234337 0.46610308 -0.057449616 0.39761025 0.6278812 -0.18418494
00000000: 5b23 4bbe b1e6 273e 4958 c6bb d2c5 5fbd
00000010: 68cb 363e d60e bfbe e0ff 803e 63df 4abe
00000020: 1ff6 0b3f 51c2 55be 6094 60be ab47 353d
00000030: 3e6b 67be dec5 39be a727 a33e 8c24 663e
00000040: 95d9 95be abdf d5bd 54ff 9fbe c8ff 2abe
00000050: 24d0 c7be b5e4 153e a2f8 b53e 2b90 d73d
00000060: bf3e b0be 5365 603e 4176 c5be 5de6 773c
00000070: 5a94 de3d 757a 203f a607 933d 38f2 92be
00000080: ce99 80be 011b 5fbe ab28 a9be 80da 073e
00000090: 9f30 aebe 2158 663e 867a c1be 8dcb 9c3e
000000a0: 105c 46be 6130 86be 43b3 d13e a824 c73e
000000b0: cd89 d63d c681 80be 1182 3d3e 94d4 4dbe
000000c0: 3a01 b8bd 4ebc d83a 4f35 b0be a29d e5be
000000d0: c306 48be 1f4e 7d3e 39c1 45be 3768 023f
000000e0: c733 8c3e b0b8 6f3d 9770 8b3e 10a5 ee3e
000000f0: 4a50 6bbd 9293 cb3e d3bc 203f fa9a 3cbe

StatefulPartitionedCall/sequential_8/dense_34/MatMul/ReadVariableOp:0 f4 [64, 64]
0.10420848 -0.21668868 0.17317854 0.21192613 -0.019905075 -0.09623812 0.1624155 -0.2879375
-0.057896636 -0.0024413052 0.06388982 -0.22810854 0.20163292 0.18909824 -0.083651386 -0.21403018
0.22565922 0.15775771 -0.028905122 0.20341083 0.090945914 -0.11281836 -0.016114978 0.13493983
0.08124205 0.09220812 0.045544952 0.06431708 -0.08349376 0.16100447 -0.23780341 0.041357864
0.020019043 0.10781053 0.1450061 -0.051148284 0.08060539 0.10003526 0.043278173 -0.010248143
-0.035097994 -0.19784562 -0.21630147 0.13284893 -0.08360577 -0.1763771 0.087399855 -0.076955914
-0.10014224 -0.20429987 0.13998465 -0.06913666 0.13484403 -0.012612441 0.12618425 -0.055579763
-0.07512404 0.06884343 0.18983497 -0.07689912 -0.19156261 -0.07050326 -0.012236369 0.17032357
-0.035270628 -0.099665076 0.030021388 0.17498977 0.085663386 0.001290183 0.1737904 0.21480438
0.014776011 -0.13612229 0.032489534 -0.17807373 0.03293041 0.122443736 0.12700687 -0.0793004
0.105770804 -0.07054688 0.056881994 0.121875554 -0.03587933 0.1164815 0.025917383 -0.14011218
-0.2779274 0.068767644 0.07803909 -0.028041184 0.1199068 -0.20134649 -0.019421251 0.07525373
0.1558231 -0.05001797 -0.024201097 -0.25029057 0.1670152 -0.10141594 0.30963796 -0.1734103
0.1495134 -0.07705085 0.1016882 -0.21966645 -0.07581178 0.04851062 0.057684448 -0.17109576
-0.11234495 -2.7574295e-05 -0.14855748 0.09867707 -0.17138135 -0.18772733 0.058693554 -0.3209288
0.09648734 -0.093642995 -0.18186724 -0.11525002 -0.05248449 0.008285661 -0.32084173 -0.06802761
0.08635186 0.12717798 -0.19361748 0.031683404 0.14288361 0.016808094 -0.030144403 0.060439643
0.16041537 0.15044287 -0.21714549 -0.1960119 0.09213074 -0.10273235 0.32053578 0.08975772
-0.06040025 -0.036406197 0.11979437 -0.0010663029 -0.041074306 0.25689006 0.3105055 -0.10528495
-0.026811944 -0.03387212 0.040961433 0.13859585 0.33839503 0.40638107 0.22468224 0.01567776
0.07698399 -0.19940291 -0.2273882 0.31571278 -0.3396833 0.13131464 -0.19722126 0.23800789
-0.0036829188 -0.18790913 0.05745704 0.045554377 0.28215572 -0.1628778 0.044032518 0.20496671
-0.11009708 0.030123515 0.12043318 -0.058079682 -0.053421777 -0.124979086 0.007502089 0.4185901
0.24191304 0.12247161 -0.07333243 0.0956104 -0.06555023 -0.21731065 0.49996865 0.14543973
0.24400268 -0.1615699 0.097687535 0.11333126 -0.038268223 0.16724017 0.105210505 0.11175795
-0.19150111 -0.14047024 -0.066222414 -0.21653338 0.1403173 0.13548517 -0.09071962 0.1799171
0.057654735 -0.14661051 0.14152497 0.023175767 -0.1750025 0.16552094 0.09267138 0.18823199
0.07882701 0.23797579 -0.3536246 -0.0473933 -0.081765376 0.09658614 0.22264758 -0.031606995
0.23028009 -0.08934041 0.07465944 -0.0046577943 0.17407282 -0.054996423 -0.1986018 0.14726901
-0.03386843 0.15887453 0.03551689 0.08672312 -0.1788905 -0.23300113 -0.19933829 0.06955544
-0.07100213 -0.020512803 0.071095005 -0.109830014 0.074300244 0.20162112 0.1780581 0.058152404
-0.024326503 -0.052863777 -0.0521637 -0.1304946 -0.08669515 0.15715975 -0.23189062 0.122142486
00000000: 416b d53d a3e3 5dbe b755 313e 2a03 593e
00000010: f80f a3bc 7e18 c5bd 4050 263e 8b6c 93be
00000020: 0625 6dbd 4efe 1fbb aad8 823d 4995 69be
00000030: dc78 4e3e f8a2 413e 6b51 abbd ba2a 5bbe
00000040: 3613 673e 3d8b 213e 6fca ecbc ee4a 503e
00000050: da41 ba3d 500d e7bd 8f03 84bc ab2d 0a3e
00000060: 3b62 a63d 9cd7 bc3d 588d 3a3d acb8 833d
00000070: c7fe aabd 5bde 243e bd82 73be dd66 293d
00000080: fafe a33c c4cb dc3d 7b7c 143e dd80 51bd
00000090: 7014 a53d 49df cc3d 7444 313d d4e7 27bc
000000a0: eac2 0fbd 0b98 4abe 227e 5dbe 8d09 083e
000000b0: 8039 abbd 339c 34be b2fe b23d 109b 9dbd
000000c0: 6017 cdbd fc33 51be 2358 0f3e 8597 8dbd
000000d0: 8e14 0a3e 69a4 4ebc 7236 013e 9ba7 63bd
000000e0: a2da 99bd c9fd 8c3d 1964 423e 497d 9dbd
000000f0: fd28 44be 0364 90bd 0d7b 48bc 4d69 2e3e
00000100: ef77 10bd 341d ccbd 6aef f53c 8530 333e
00000110: 4970 af3d 5c1b a93a 1cf6 313e aef5 5b3e
00000120: 1517 723c a463 0bbe bf13 053d f658 36be
00000130: 0ae2 063d c8c3 fa3d 170e 023e 4068 a2bd
00000140: 5d9e d83d e27a 90bd 18fd 683d e499 f93d
00000150: 34f6 12bd da8d ee3d b150 d43c 9179 0fbe
00000160: 804c 8ebe 0dd6 8c3d f5d2 9f3d a0b6 e5bc
00000170: b291 f53d c62d 4ebe 5119 9fbc a11e 9a3d
00000180: 1790 1f3e a5df 4cbd 6141 c6bc 1626 80be
00000190: 0806 2b3e 29b3 cfbd de88 9e3e 7892 31be
000001a0: 0a1a 193e d6cc 9dbd e741 d03d 3ef0 60be
000001b0: 3543 9bbd 12b3 463d 8746 6c3d ba33 2fbe
000001c0: 1c15 e6bd 594f e7b7 741f 18be 3417 ca3d
000001d0: 987e 2fbe 983b 40be a768 703d c850 a4be
000001e0: 289b c53d e6c7 bfbd 683b 3abe 3408 ecbd
000001f0: faf9 56bd 95c0 073c 5e45 a4be 0f52 8bbd
00000200: 3ed9 b03d f23a 023e a943 46be 75c6 013d
00000210: 1550 123e 21b1 893c 65f1 f6bc 8f8f 773d
00000220: ed43 243e b20d 1a3e 635b 5ebe 58b7 48be
00000230: 0baf bc3d 5765 d2bd 441d a43e e5d2 b73d
00000240: 4166 77bd aa1e 15bd c056 f53d 30c3 8bba
00000250: 883d 28bd 1887 833e 94fa 9e3e a39f d7bd
00000260: b9a4 dbbc 7ebd 0abd 2dc7 273d 12ec 0d3e
00000270: 1d42 ad3e 2e11 d03e 1a13 663e a56e 803c
00000280: c8a9 9d3d 4730 4cbe 74d8 68be 1ba5 a13e
00000290: f8ea adbe 5877 063e 5ff4 49be 57b8 733e
000002a0: 205d 71bb 406b 40be 1358 6b3d 3a97 3a3d
000002b0: b776 903e 70c9 26be 715b 343d cbe2 513e
000002c0: 947a e1bd 97c5 f63c aca5 f63d f6e4 6dbd
000002d0: cbd0 5abd 09f5 ffbd 15d4 f53b 7151 d63e
000002e0: 0db8 773e 65d2 fa3d 502f 96bd 63cf c33d
000002f0: 333f 86bd af86 5ebe e4fb ff3e 27ee 143e
00000300: d7db 793e 9472 25be 6710 c83d 381a e83d
00000310: 24bf 1cbd 0241 2b3e 9b78 d73d 5ae1 e43d
00000320: de18 44be 6ed7 0fbe 9e9f 87bd edba 5dbe
00000330: 57af 0f3e a0bc 0a3e 35cb b9bd 303c 383e
00000340: 5f27 6c3d 1121 16be eceb 103e 1bdb bd3c
00000350: db33 33be 527e 293e 7eca bd3d e3bf 403e
00000360: 0e70 a13d edaf 733e 490e b5be 7a1f 42bd
00000370: 9b74 a7bd f4ce c53d bafd 633e 5676 01bd
00000380: 8bce 6b3e 1bf8 b6bd 0ce7 983d 69a0 98bb
00000390: 2540 323e ee43 61bd 455e 4bbe b0cd 163e
000003a0: 9fb9 0abd 01b0 223e 297a 113d e49b b13d
000003b0: 122f 37be d997 6ebe 561f 4cbe 1573 8e3d
000003c0: 9169 91bd 770a a8bc 429a 913d 8fee e0bd
000003d0: ba2a 983d c475 4e3e dd54 363e 3731 6e3d
000003e0: 6048 c7bc b087 58bd 9ba9 55bd 60a0 05be
000003f0: 3a8d b1bd 7cee 203e bc74 6dbe d725 fa3d

StatefulPartitionedCall/sequential_8/dense_34/BiasAdd/ReadVariableOp:0 f4 [64]
0.07297132 -0.033292096 -0.007857467 -0.0036216164 -0.017614694 0.07315471 -0.00616595 0.054934315
-0.040400814 -0.0481811 -0.0075573237 -0.014190281 0.05065361 0.031055762 0.029278984 0.018243939
0.05812438 0.06353407 0.098785505 0.008529764 0.058614016 0.0024217935 -0.013953225 -0.010992453
0.07416539 0.021802936 0.00162744 -0.04882655 -0.0050505707 -0.01375312 -0.01197272 0.031084122
0.060568552 0.027298309 0.16308671 0.00994752 -0.08799583 0.014678009 0.0062283385 -0.02515156
0.040009003 -0.048490778 0.02784832 0.0026401035 -0.02758778 -0.017682014 -0.0056967037 0.05271874
-0.023668371 -0.058515735 0.008307277 0.12325808 0.028628103 0.037894033 0.0014696807 0.029783368
0.013666708 -0.021446845 -0.0069528995 0.026236614 0.020521587 0.005881639 0.036769345 0.09257059
00000000: fd71 953d 4b5d 08bd 9bbc 00bc a458 6dbb
00000010: b14c 90bc 23d2 953d bd0b cabb ce02 613d
00000020: 537b 25bd 8c59 45bd 6da3 f7bb 5a7e 68bc
00000030: 297a 4f3d a768 fe3c 7bda ef3c 5074 953c
00000040: d413 6e3d 271e 823d 0e50 ca3d 6cc0 0b3c
00000050: 4015 703d f4b6 1e3b 119c 64bc b119 34bc
00000060: 06e4 973d 129c b23c d34f d53a 59fe 47bd
00000070: 427f a5bb c454 61bc 3a29 44bc 21a4 fe3c
00000080: bb16 783d b4a0 df3c 3400 273e ecfa 223c
00000090: 2837 b4bd 087c 703c 1717 cc3b a50a cebc
000000a0: 7be0 233d 449e 46bd 2922 e43c 9605 2d3b
000000b0: c5ff e1bc dfd9 90bc 6aab babb 9bef 573d
000000c0: 2ce4 c1bc 32ae 6fbd 3f1b 083c bb6e fc3d
000000d0: 7c85 ea3c c636 1b3d 4da2 c03a 40fc f33c
000000e0: 54ea 5f3c 4bb1 afbc 26d5 e3bb 2bee d63c
000000f0: e31c a83c c4ba c03b 749b 163d a695 bd3d

StatefulPartitionedCall/sequential_8/dense_33/MatMul/ReadVariableOp:0 f4 [64, 64]
0.006212061 -0.2558259 0.12873833 0.1389864 0.23877111 -0.1828424 -0.04100858 -0.10401712
-0.15698121 0.13692473 0.2954269 -0.028422242 -0.19723772 -0.09528403 0.10175516 0.25146338
-0.23115091 0.097197905 -0.25551426 0.083994575 -0.15510762 0.12908983 -0.20680283 -0.06263134
-0.12220443 0.04731084 -0.052528534 0.18193369 -0.22386365 0.18669531 0.041455436 0.26352257
0.14915678 -0.1542707 0.05334788 -0.05505135 0.30496636 -0.19520696 -0.08193715 -0.037118297
-0.1650636 -0.071837135 0.2647534 -0.24366918 -0.009903097 -0.16889952 0.24998732 -0.20921312
-0.13516824 -0.22737327 0.15711322 -0.09792816 0.015876014 0.17052117 0.10868001 -0.22866721
0.09619307 -0.08614652 0.03119343 -0.23060119 -0.13906564 -0.15771577 0.054922976 -0.21512397
-0.2340482 0.009296639 0.120842814 0.116980754 0.019128453 0.14199553 0.09851205 -0.12514713
-0.16584902 0.15364727 0.04115336 -0.016577657 0.07721089 0.026313988 -0.047398295 -0.093152344
-0.040695686 -0.15410903 0.007887474 -0.26870802 -0.06739543 0.057200145 -0.24790892 0.19904251
-0.18949135 -0.11682419 -0.19718298 -0.16505629 -0.091162734 0.17605329 0.2033569 -0.062409304
-0.045193538 0.15001696 -0.19469577 0.032246023 -0.04044595 -0.09072934 0.07997786 -0.22908683
-0.13741836 -0.02276488 -0.19023328 0.020678956 0.011315009 0.10062942 -0.07203705 -0.12664692
0.10036748 -0.026240146 0.021528212 -0.025704037 -0.28535864 -0.085475154 -0.011399226 0.21007146
-0.24271733 -0.03722447 -0.27680278 -0.15841709 0.01601783 0.21717799 0.101935804 -0.15733743
-0.15948443 0.028476438 0.06766821 0.15820599 -0.056496955 0.13464227 -0.061840996 -0.13404079
-0.16233878 0.032182634 0.23238242 0.09894075 0.1700055 -0.08177279 -0.18436527 -0.059436876
0.025573298 -0.40752238 0.1504675 0.2149095 -0.11011555 -0.04531735 0.16541794 -0.17215143
-0.078930385 0.13150595 -0.16620065 -0.10660237 0.21588671 -0.1348187 0.032449882 -0.15804304
-0.16532254 -0.020981539 -0.0890046 -0.14979026 -0.11941432 -0.2448683 -0.07045315 -0.0822313
0.08957058 0.20142627 -0.0383116 -0.00979313 0.29898426 -0.115830556 -0.25627673 0.026066545
-0.3617227 0.046720225 0.17833425 -0.23303646 0.027123814 -0.32447648 0.23692209 -0.16138293
0.26732558 -0.06609845 0.27945969 -0.14813153 0.12972096 -0.09758713 0.123739876 -0.16531572
0.12812322 -0.21480261 0.2352256 0.24478874 0.0065366495 -0.19993901 -0.101297945 0.08641512
-0.03651715 -0.10350627 0.061474454 -0.048585396 -0.18396491 0.16954416 0.10571634 -0.13636486
0.010985682 -0.060656674 0.098306574 -0.06607339 0.018358191 0.004146467 0.023247244 0.14695242
-0.2921051 -0.12441081 0.13684514 -0.10533021 0.06409124 0.20749949 -0.11600214 0.22263063
-0.12587634 0.17300041 0.17014542 0.16663292 0.18158147 -0.082140975 0.12783027 -0.01695208
0.016258998 0.15817243 -0.029827658 -0.05612939 -0.19351289 -0.07627144 -0.27118456 0.13506383
0.22695684 -0.04970412 -0.002272377 -0.037629306 -0.025711901 0.045179497 0.07825013 -0.3222503
0.07422365 -0.31657073 -0.07801485 -0.021688042 -0.076743856 -0.1731171 0.2311213 0.001169478
00000000: 8b8e cb3b 9dfb 82be fbd3 033e 7352 0e3e
00000010: 6a80 743e 0a3b 3bbe 9df8 27bd ee06 d5bd
00000020: afbf 20be ff35 0c3e 3242 973e c3d5 e8bc
00000030: aff8 49be 4624 c3bd 0265 d03d cfbf 803e
00000040: d3b2 6cbe b20f c73d c4d2 82be 5905 ac3d
00000050: 88d4 1ebe 2030 043e 1fc4 53be dc44 80bd
00000060: 5146 fabd 03c9 413d 2928 57bd d34c 3a3e
00000070: 833c 65be 0e2d 3f3e 2dcd 293d 6eec 863e
00000080: 8ebc 183e 23f9 1dbe 4e83 5a3d 867d 61bd
00000090: 8d24 9c3e 55e4 47be aace a7bd 5b09 18bd
000000a0: 6f06 29be 591f 93bd c28d 873e 6a84 79be
000000b0: 9940 22bc fff3 2cbe adfc 7f3e f73b 56be
000000c0: 8b69 0abe 8ad4 68be 4ae2 203e 8f8e c8bd
000000d0: 6a0e 823c 1a9d 2e3e a093 de3d bd27 6abe
000000e0: df00 c53d 966d b0bd 5d89 ff3c b822 6cbe
000000f0: 3967 0ebe 3e80 21be eaf6 603d 7549 5cbe
00000100: 55aa 6fbe ee50 183c 707c f73d 9b93 ef3d
00000110: 46b3 9c3c 4767 113e b0c0 c93d 9226 00be
00000120: 53d4 29be b655 1d3e 6d90 283d decd 87bc
00000130: be20 9e3d 6f90 d73c b724 42bd a8c6 bebd
00000140: 85b0 26bd c2ce 1dbe 773a 013c 1994 89be
00000150: 9d06 8abd b34a 6a3d d6db 7dbe cdd1 4b3e
00000160: 050a 42be 8541 efbd 56ea 49be 8404 29be
00000170: 87b3 babd 5047 343e cb3c 503e e6a0 7fbd
00000180: dc1c 39bd 0c9e 193e 545e 47be 6814 043d
00000190: a7aa 25bd 4ed0 b9bd 6fcb a33d bd95 6abe
000001a0: 66b7 0cbe 6a7d babc 83cc 42be ea66 a93c
000001b0: 9662 393c cc16 ce3d 2988 93bd bbaf 01be
000001c0: 778d cd3d 93f5 d6bc ef5b b03c 4691 d2bc
000001d0: 871a 92be 990d afbd d2c3 3abc f91c 573e
000001e0: e48a 78be b078 18bd 18b9 8dbe 1738 22be
000001f0: d337 833c e863 5e3e b8c3 d03d 101d 21be
00000200: e34f 23be 6b47 e93c a195 8a3d c000 223e
00000210: 5a69 67bd aadf 093e fc4c 7dbd fd41 09be
00000220: 233c 26be f0d1 033d a8f5 6d3e 73a1 ca3d
00000230: ec15 2e3e 7e78 a7bd 40ca 3cbe 1574 73bd
00000240: 187f d13c c6a6 d0be 2714 1a3e 3c11 5c3e
00000250: 4384 e1bd b09e 39bd 5263 293e 7748 30be
00000260: 41a6 a1bd 7fa9 063e 8130 2abe 5852 dabd
00000270: 6811 5d3e ea0d 0abe 2bea 043d 09d6 21be
00000280: 504a 29be 7ae1 abbc 0b48 b6bd 9e62 19be
00000290: 7f8f f4bd c1be 7abe be49 90bd e268 a8bd
000002a0: c870 b73d b042 4e3e a0ec 1cbd 5d73 20bc
000002b0: 7714 993e 9238 edbd b436 83be 8289 d53c
000002c0: b833 b9be b55d 3f3d 419d 363e 1ca1 6ebe
000002d0: c332 de3c c821 a6be b49b 723e 9141 25be
000002e0: e6de 883e a05e 87bd 5715 8f3e cbaf 17be
000002f0: 92d5 043e c3db c7bd 556b fd3d 8648 29be
00000300: bc32 033e 37f5 5bbe fbde 703e e6a9 7a3e
00000310: 6431 d63b d0bc 4cbe 4c75 cfbd 69fa b03d
00000320: 0293 15bd 18fb d3bd a3cc 7b3d 7b01 47bd
00000330: 4c61 3cbe fc9c 2d3e cf81 d83d 3ba3 0bbe
00000340: 4afd 333c 2273 78bd f554 c93d 7c51 87bd
00000350: eb63 963c 16df 873b 0171 be3c b27a 163e
00000360: cd8e 95be 18cb febd 2221 0c3e 5db7 d7bd
00000370: 4542 833d bf7a 543e 8892 edbd 49f9 633e
00000380: bae5 00be 0527 313e 9a3a 2e3e d2a1 2a3e
00000390: 7ef0 393e 8739 a8bd f0e5 023e 17df 8abc
000003a0: 9731 853c f4f7 213e 2259 f4bc eee7 65bd
000003b0: 3e28 46be 3334 9cbd b4d8 8abe 2c4e 0a3e
000003c0: 6067 683e 8c96 4bbd 29ec 14bb 3021 1abd
000003d0: c4a1 d2bc 230e 393d 9b41 a03d fefd a4be
000003e0: 9202 983d 8f15 a2be 40c6 9fbd 1fab b1bc
000003f0: e22b 9dbd 9c45 31be 10ab 6c3e 2c49 993a

StatefulPartitionedCall/sequential_8/dense_33/BiasAdd/ReadVariableOp:0 f4 [64]
-0.0020099184 -0.035150833 0.042595677 0.013071144 0.122480094 0.016927082 -0.017916877 -0.024170939
-0.0028058202 0.05436978 0.038853787 0.061275106 0.005515548 0.023340018 0.023697065 0.06767454
-0.024469825 0.0050079073 -0.06557675 -0.021238599 0.005029386 0.08254104 -0.010164894 0.10151029
-0.0082834605 0.054024737 0.0030575492 0.021420415 0.006618976 0.049475726 0.029212227 0.05945768
-0.007986931 0.0341785 -0.002694257 -0.002196299 0.024055663 -0.045278255 -0.04278872 -0.032925554
-0.05979917 -0.007300495 0.0075057307 -0.016287258 0.029380256 -0.01740407 -0.032262433 0.027289314
0.010644726 -0.007559246 -0.010445563 -0.050444733 -0.025968485 0.121622935 0.006795181 -0.02319157
0.008869174 0.007954953 0.021115698 -0.026833344 0.024386065 -0.008273368 0.09384774 -0.08000079
00000000: d6b8 03bb 52fa 0fbd ce78 2e3d 5a28 563c
00000010: d8d6 fa3d aaaa 8a3c 6ac6 92bc 2202 c6bc
00000020: dae1 37bb d9b2 5e3d 2625 1f3d 9bfb 7a3d
00000030: c5bb b43b 9133 bf3c 5920 c23c f398 8a3d
00000040: f174 c8bc 5f19 a43b 1a4d 86bd 92fc adbc
00000050: 8ccd a43b 470b a93d a88a 26bc a0e4 cf3d
00000060: 5ab7 07bc 0b49 5d3d 2a61 483b de79 af3c
00000070: ffe3 d83b 0fa7 4a3d 7b4e ef3c e589 733d
00000080: 9edb 02bc c1fe 0b3d 2292 30bb c8ef 0fbb
00000090: 6210 c53c b175 39bd 3a43 2fbd f2dc 06bd
000000a0: f9ef 74bd fe38 efbb a2f2 f53b db6c 85bc
000000b0: ddae f03c fb92 8ebc 9d25 04bd d78d df3c
000000c0: 3867 2e3c 8db3 f7bb de23 2bbc 239f 4ebd
000000d0: dcbb d4bc 7215 f93d 1caa de3b 3ffc bdbc
000000e0: 0350 113c 7e55 023c d4fa ac3c 9ad1 dbbc
000000f0: 49c5 c73c 058d 07bc 3e33 c03d 74d7 a3bd

StatefulPartitionedCall/sequential_8/dense_32/MatMul/ReadVariableOp:0 f4 [11, 64]
0.017111463 -0.049081996 0.1998558 -0.26013353 -0.08050249 -0.28918543 0.09556473 0.22955613
0.042192575 -0.065043814 0.17072418 0.053259432 -0.13298576 -0.048793864 -0.34785226 0.11580374
-0.06655136 0.33126855 -0.17937268 -0.18953647 0.18726243 0.12197483 0.17657791 0.2401754
0.044579335 0.35344037 -0.017960811 -0.10529356 0.033666976 0.21895684 0.179027 0.015580441
-0.2656524 -0.13196824 -0.24533816 0.13950594 0.23611012 0.25567946 0.16979425 0.19837278
0.07269659 -0.19135709 0.21608454 0.082304075 0.104224205 -0.07495359 0.29815072 0.30941543
-0.25708246 0.024058554 0.20867324 0.30720583 -0.19640653 0.29582322 -0.28809586 0.18805441
-0.025128428 -0.2795837 -0.16661267 0.21298426 -0.16007312 0.031567365 0.22719388 0.2051935
-0.49878016 0.04139648 0.22520754 -0.28683516 0.13620493 0.34163874 0.11932559 0.2534362
-0.096361786 0.034004997 -0.12339561 -0.19895512 -0.37355945 -0.056183595 0.078455135 0.09281068
-0.32374665 0.11367945 0.13600747 -0.16453685 -0.28734612 -0.16115512 -0.22315596 -0.35528135
0.24963571 0.10291782 -0.37927568 -0.08800825 0.020107869 -0.14241326 -0.078031994 0.10899377
-0.2732167 0.04877831 0.14739312 0.060784522 0.30638304 -0.18555577 -0.170398 0.18406421
0.39209372 0.04048117 0.08756177 -0.16404273 -0.0153927645 0.084135115 0.19965552 0.1320866
0.14906645 0.114520125 0.040333774 0.34712282 -0.07118162 -0.5240724 -0.221408 0.21400915
-0.35643625 0.0017193959 0.17459388 -0.08781715 0.08813989 0.050022915 -0.2020477 0.13386115
-0.015717085 -0.0433782 0.039380465 0.04534981 -0.00041119376 -0.13714886 0.014645944 -0.051197685
-0.10025924 0.02982546 -0.10178515 0.26439223 -0.16863549 -0.16431172 -0.18309884 -0.24413963
-0.28291 -0.16732532 0.045668617 0.12494224 0.20129417 -0.038655736 0.025490055 0.10617637
0.10007132 -0.07099293 -0.14303452 -0.2434467 -0.15906905 -0.024235833 -0.04379944 -0.20662688
-0.2204637 -0.09855053 -0.07517971 -0.05271799 0.20529471 0.18793473 -0.19383001 -0.16131349
-0.37277693 0.020151224 0.1742967 -0.06610234 0.009624174 0.28901696 0.09877359 -0.1373863
-0.2828998 0.06898805 0.042475514 -0.042497914 -0.058085956 -0.044239238 0.07681203 0.12364025
-0.20391178 -0.0008098896 0.17992944 0.2060088 0.12131158 0.11769015 -0.084719226 0.21627004
0.14467736 0.22511204 -0.040157564 -0.15282816 -0.01745164 -0.083698906 -0.019820826 -0.16230057
0.021728227 0.17048348 -0.29329666 -0.27639577 0.00058490364 0.06438558 -0.14273062 -0.16478327
-0.2218693 0.02456937 0.13895349 0.2317588 0.1286355 -0.02956326 0.0654041 -0.047196865
-0.25053775 -0.2735693 0.2438974 -0.1788522 -0.22529756 -0.12330237 0.16397925 0.235984
0.16903032 -0.14372316 -0.17171146 0.20708486 0.037484128 -0.14507616 0.13078932 0.10404145
-0.054818448 -0.08119769 0.3230605 0.27482453 0.19296984 -0.10946908 -0.2855346 -0.0004549201
0.07470244 -0.14197852 0.14470765 0.16627362 -0.22231445 0.045579907 -0.10874885 0.13809358
-0.2721693 -0.30934724 -0.20730875 0.03324725 0.2460294 -0.2396977 -0.06147176 -0.09795581
00000000: 572d 8c3c 340a 49bd 00a7 4c3e 3930 85be
00000010: 7dde a4bd 1d10 94be 71b7 c33d c310 6b3e
00000020: 1fd2 2c3d b135 85bd 52d2 2e3e 9026 5a3d
00000030: 6b2d 08be 13dc 47bd b119 b2be 832a ed3d
00000040: 144c 88bd 089c a93e 79ad 37be d915 42be
00000050: b9c1 3f3e f1cd f93d d7d0 343e 8af0 753e
00000060: d298 363d 23f6 b43e 8d22 93bc 26a4 d7bd
00000070: 62e6 093d 3936 603e db52 373e 1b45 7f3c
00000080: 9703 88be af22 07be ed39 7bbe a5da 0e3e
00000090: dac6 713e 6be8 823e 8bde 2d3e 3c22 4b3e
000000a0: f3e1 943d 1df3 43be 4445 5d3e 0a8f a83d
000000b0: 8073 d53d 4581 99bd 36a7 983e b36b 9e3e
000000c0: 50a0 83be 7216 c53c 70ae 553e 154a 9d3e
000000d0: cb1e 49be 2476 973e 4d81 93be 5691 403e
000000e0: 22da cdbc 9825 8fbe 839c 2abe 8c18 5a3e
000000f0: 35ea 23be c84c 013d 83a5 683e 3f1e 523e
00000100: 1d60 ffbe 5b8f 293d ce9c 663e 0fdc 92be
00000110: 4e79 0b3e 46eb ae3e fa60 f43d 64c2 813e
00000120: 5459 c5bd d348 0b3d d6b6 fcbd e4ba 4bbe
00000130: 2f43 bfbe c520 66bd 16ad a03d 8713 be3d
00000140: 1fc2 a5be c5d0 e83d 8b45 0b3e 597c 28be
00000150: 081f 93be d905 25be ff82 64be 70e7 b5be
00000160: 81a0 7f3e 94c6 d23d 6c30 c2be ab3d b4bd
00000170: 42b9 a43c c8d4 11be 3dcf 9fbd 2038 df3d
00000180: 0fe3 8bbe c4cb 473d 39ee 163e 31f9 783d
00000190: 3dde 9c3e 5502 3ebe d07c 2ebe 547b 3c3e
000001a0: 82c0 c83e 95cf 253d 9653 b33d d1fa 27be
000001b0: ef31 7cbc 084f ac3d 7f72 4c3e b641 073e
000001c0: e0a4 183e 8789 ea3d 0735 253d 15ba b13e
000001d0: abc7 91bd 9c29 06bf c7b8 62be 3725 5b3e
000001e0: d07e b6be 5a5d e13a bdc8 323e 7ad9 b3bd
000001f0: b082 b43d d4e4 4c3d 98e5 4ebe e612 093e
00000200: 1ec1 80bc 57ad 31bd 694d 213d b9c0 393d
00000210: 7e95 d7b9 c070 0cbe 8bf5 6f3c aab4 51bd
00000220: b754 cdbd 8654 f43c bc74 d0bd 6b5e 873e
00000230: c8ae 2cbe 5541 28be 437e 3bbe bdff 79be
00000240: 94d9 90be 5457 2bbe 040f 3b3d b8e1 ff3d
00000250: 0f20 4e3e 7a55 1ebd 85d0 d03c ff72 d93d
00000260: 31f2 cc3d be64 91bd a477 12be 174a 79be
00000270: ffe2 22be 3a8a c6bc 0b67 33bd ff95 53be
00000280: 3cc1 61be dcd4 c9bd d2f7 99bd d2ee 57bd
00000290: c738 523e f671 403e 607b 46be 5d2f 25be
000002a0: 9edc bebe 2e14 a53c d67a 323e aa60 87bd
000002b0: b6ae 1d3c 08fa 933e cf49 ca3d ffae 0cbe
000002c0: 3ed8 90be 9b49 8d3d cefa 2d3d 4b12 2ebd
000002d0: 8aeb 6dbd 3434 35bd a04f 9d3d 1937 fd3d
000002e0: 40ce 50be c54e 54ba 6c3f 383e f9f3 523e
000002f0: 3572 f83d 8907 f13d 4681 adbd e575 5d3e
00000300: 4d26 143e c583 663e 427c 24bd fc7e 1cbe
00000310: bef6 8ebc 556a abbd 495f a2bc 1f32 26be
00000320: 65ff b13c 3993 2e3e fb2a 96be bf83 8dbe
00000330: 3854 193a 96dc 833d fa27 12be f2bc 28be
00000340: b531 63be b445 c93c d349 0e3e 2e52 6d3e
00000350: 06b9 033e a62e f2bc 96f2 853d 8051 41bd
00000360: 7c46 80be 4611 8cbe 3dc0 793e 0825 37be
00000370: 67b4 66be f485 fcbd 2dea 273e caa5 713e
00000380: 4916 2d3e 2a2c 13be 21d5 2fbe 0e0e 543e
00000390: f588 193d d88e 14be a3ed 053e af13 d53d
000003a0: 4f89 60bd f94a a6bd 3068 a53e cdb5 8c3e
000003b0: e399 453e 5331 e0bd 9731 92be 5882 eeb9
000003c0: 98fd 983d d162 11be 3e2e 143e a243 2a3e
000003d0: 66a6 63be ffb1 3a3d b8b7 debd 6768 0d3e
000003e0: c659 8bbe c362 9ebe bf48 54be 452e 083d
000003f0: 22ef 7b3e 5073 75be d0c9 7bbd 0e9d c8bd

StatefulPartitionedCall/sequential_8/dense_32/BiasAdd/ReadVariableOp:0 f4 [64]
-0.023677792 0.023400106 0.010453586 0.042580657 0.056225337 0.008989816 -0.0012796466 -0.07265294
-0.023271697 0.053070955 0.11505781 -0.08225672 0.012703429 -0.016042618 0.011375123 -0.010925402
-0.06977545 0.07166913 -0.016190289 0.021550708 -0.045177676 0.005926743 -0.071156986 -0.1100539
0.029252369 0.060403693 -0.015469884 -0.124837615 -0.019220421 -0.1137494 0.013672486 -0.060266834
-0.069715954 -0.08253256 -0.00531891 -0.019394157 -0.017441165 0.008593444 -0.08783325 -0.01678468
0.03645295 -0.017590916 -0.08638788 -0.056798317 0.0026006592 0.040375672 -0.027481198 -0.14148217
0.05339332 -0.08301738 0.03298144 -0.08335042 -0.08015208 -0.047703974 -0.078472994 -0.05831392
-0.10078778 -0.01959724 -0.012175456 -0.048976842 0.028063908 -0.09179964 -0.00838246 -0.10724611
00000000: eef7 c1bc 94b1 bf3c 8445 2b3c 0e69 2e3d
00000010: 8a4c 663d 054a 133c d1b9 a7ba 11cb 94bd
00000020: 49a4 bebc ee60 593d 6ea3 eb3d 3676 a8bd
00000030: 0b22 503c cf6b 83bc b95e 3a3c 7500 33bc
00000040: 6ee6 8ebd 44c7 923d 7fa1 84bc 1c8b b03c
00000050: 3a0c 39bd 2035 c23b c1ba 91bd f063 e1bd
00000060: aaa2 ef3c dd69 773d 6575 7dbc ddaa ffbd
00000070: 2574 9dbc 72f5 e8bd 9002 603c 5bda 76bd
00000080: 3dc7 8ebd d506 a9bd 404a aebb 7fe0 9ebc
00000090: c6e0 8ebc 84cb 0c3c ebe1 b3bd 0680 89bc
000000a0: b04f 153d d31a 90bc 21ec b0bd 5aa5 68bd
000000b0: d26f 2a3b f660 253d 4020 e1bc b4e0 10be
000000c0: f4b2 5a3d 0405 aabd 8c17 073d a0b3 aabd
000000d0: c626 a4bd 3e65 43bd 73b6 a0bd 94da 6ebd
000000e0: d369 cebd 648a a0bc 907b 47bc f19b 48bd
000000f0: 48e6 e53c 7301 bcbd 9656 09bc d9a3 dbbd

StatefulPartitionedCall/sequential_8/customer_data/batchnorm/sub:0 f4 [11]
-0.6595951 -1.7697754 -2.3550732 -3.1829863 -1.5014861 -0.9872624 -2.205977 -31.538393
-0.3716383 -4.7615395 -1.6951727
00000000: 39db 28bf 0088 e2bf 85b9 16c0 0cb6 4bc0
00000010: b230 c0bf 3bbd 7cbf ba2e 0dc0 a14e fcc1
00000020: 6047 bebe 885e 98c0 6bfb d8bf

StatefulPartitionedCall/sequential_8/customer_data/batchnorm/mul:0 f4 [11]
1.663254 7.2168687e-06 1.0969868 3.5011244 2.369574 2.327069 2.5242362 31.622776
3.03015 0.0003396111 0.00067988393
00000000: 82e5 d43f 6e28 f236 106a 8c3f 6c12 6040
00000010: 1aa7 1740 b3ee 1440 168d 2140 72fb fc41
00000020: faed 4140 d50d b239 3d3a 323a
